…
  layers.MaxPooling2D(),
  layers.Conv2D(64, 3, padding='same', activation='relu'),
  layers.MaxPooling2D(),
  layers.Flatten(),
  layers.Dense(128, activation='relu'),
  layers.Dense(num_classes)
])

model.compile(optimizer= 'adam',
              loss=tf.keras.losses.SparseCategoricalCrossentropy(from_logits=True),
              metrics=['accuracy'])

model.summary()

Model: "sequential"
_________________________________________________________________
 Layer (type)                Output Shape              Param #   
=================================================================
 rescaling_1 (Rescaling)     (None, 400, 400, 3)       0         
                                                                 
 conv2d (Conv2D)             (None, 400, 400, 16)      448       
                                                                 
 max_pooling2d (MaxPooling2D  (None, 200, 200, 16)     0         
 )                                                               
                                                                 
 conv2d_1 (Conv2D)           (None, 200, 200, 32)      4640      
                                                                 
 max_pooling2d_1 (MaxPooling  (None, 100, 100, 32)     0         
 2D)                                                             
                                                                 
 conv2d_2 (Conv2D)           (None, 100, 100, 64)      18496     
                                                                 
 max_pooling2d_2 (MaxPooling  (None, 50, 50, 64)       0         
 2D)                                                             
                                                                 
 flatten (Flatten)           (None, 160000)            0         
                                                                 
 dense (Dense)               (None, 128)               20480128  
                                                                 
 dense_1 (Dense)             (None, 6)                 774       
                                                                 
=================================================================
Total params: 20,504,486
Trainable params: 20,504,486
Non-trainable params: 0
_________________________________________________________________

epochs=10
history = model.fit(
  train_ds,
  validation_data=val_ds,
  epochs=epochs
)

Epoch 1/10
17/17 [==============================] - 84s 5s/step - loss: 0.0371 - accuracy: 0.9945 - val_loss: 1.1117 - val_accuracy: 0.7481
…
